myPro/tools/onnx/exp.frozen.onnx (onnx, 889103 bytes, 7 tensors)

comExp/ouput/kernel/read/_6__cf__6:0 f4 [7, 64, 7, 7]
000000 4e 13 f9 bb a4 12 08 ba fd 42 f4 3b cb 3b 08 bd
       -0.0076011783 -0.0005190766 0.0074542747 -0.033260148
000010 d3 87 4e 3c 67 fb 4f bc b9 e1 ad 3c af bb 11 bd
       0.012605625 -0.012694216 0.021225797 -0.03557938
000020 f2 7a 4e bb 80 5c 00 3d ec a1 3d bc aa 91 07 3c
       -0.0031506387 0.031338215 -0.01157425 0.008274475
000030 49 34 60 bc 1c 9b bf 3b 26 e4 34 bb 36 36 db 3b
       -0.013684341 0.005847348 -0.0027601807 0.006689812
000040 bf 1f b7 3b 7f 82 6b bc 91 ee c9 3c 89 14 1f bd
       0.005588501 -0.014374374 0.02464989 -0.038837943
000050 ca 0c ed bb e6 db 2d bc 05 06 cf 3c 9f b7 9b bb
       -0.0072341906 -0.01061151 0.025271425 -0.004752114
000060 ad 35 a5 3c 14 0b 85 bc ae 9f 01 bd d1 55 92 bb
       0.020167196 -0.016240634 -0.031646423 -0.0044657965
000070 1c 46 2e bd db 92 75 bc a4 43 6d bc 25 66 0a bc
       -0.04254733 -0.014988626 -0.014481459 -0.008447205
000080 67 33 9b 3b d4 7f ab 3b 71 be 8a 3c f5 ce 5e 3c
       0.0047363522 0.005233744 0.016936513 0.013599147
000090 da 42 92 bc 3a 7e c3 bc 40 31 b9 bb 7a e8 16 bc
       -0.017854143 -0.0238639 -0.005651623 -0.0092107
0000a0 6a f6 cb 3c cb 74 f4 3c 69 33 a6 bc a6 92 82 3c
       0.024897773 0.029840847 -0.020288186 0.015939068
0000b0 a5 86 88 bc 56 c4 4d bc b5 37 67 3c 30 80 44 3b
       -0.016665766 -0.012559017 0.014112403 0.0029983632
0000c0 8c 24 7b bc 9e e2 88 bc 9e 4d e8 bb 04 06 91 3c
       -0.015328538 -0.016709622 -0.007089331 0.017703064
0000d0 f5 d2 2e bc 0b 0c 70 bc 46 cf 04 bd a4 5a cc bc
       -0.010670413 -0.014651309 -0.032424234 -0.024945565
0000e0 6d f6 15 bc 13 69 68 3c 0f 99 f6 bc 64 25 47 3a
       -0.009152991 0.014185208 -0.03010228 0.0007596819
0000f0 28 60 be 3c 0e f7 0b 3b b4 02 9f bc ba 93 ba 3c
       0.02323921 0.0021356973 -0.019410469 0.02277552
000100 f7 7f 9a 3c a8 56 63 bc 09 63 de bc 6c 99 28 bd
       0.018859847 -0.013875641 -0.027146833 -0.04116194
000110 a9 c8 dc 3c 09 80 73 bc 44 67 c7 bc 39 da 9d bc
       0.026951151 -0.014862069 -0.024341233 -0.019269096
000120 c0 3d 83 3b 0c 74 73 3b 6a 26 89 bb fd 34 97 bc
       0.004005164 0.0037148027 -0.0041854875 -0.018457884
000130 7f 54 f8 3b a9 46 b9 bb 80 36 58 3b 75 a7 2e 3c
       0.007578432 -0.0056541753 0.003299147 0.010660042
000140 04 9e cf 3b dd c1 30 bd 0f 67 c6 bc 5e 9c 4c 3c
       0.0063359756 -0.043153632 -0.024219064 0.012488453
000150 cb 7a 95 bc 8a 07 82 bb 38 4a 70 3b ef 30 5e bc
       -0.018247029 -0.003968184 0.0036665332 -0.013561471
000160 1b 2a 46 bb b9 1a 5d bc cd d1 a5 bc e9 04 df bc
       -0.00302375 -0.013495141 -0.020241642 -0.027224021
000170 3c 43 9e 3c 1a 8a 59 3c 9a ef d8 ba 58 4d 1e bd
       0.01931917 0.013277555 -0.0016550899 -0.03864798
000180 3c 90 5c 3c 3d 92 be 3b 07 d6 e5 bc 52 7c 40 bc
       0.0134621225 0.005815773 -0.028056158 -0.01174839
000190 40 78 d3 bc d9 6a 10 ba a0 9d 8d 3c 06 39 c3 bc
       -0.025814176 -0.00055090856 0.017287076 -0.023830902
0001a0 4f ae 09 3c 05 40 81 3c 09 74 a9 3c 24 42 32 3c
       0.008403375 0.015777597 0.020685213 0.010880027
0001b0 8d d1 8f bb 92 63 90 3b e9 2c a1 3c 19 8d c4 3b
       -0.004388994 0.004406401 0.019674735 0.0059982655
0001c0 75 dc 20 bb 2c 9c 18 3c e1 94 b4 3c d8 c1 3d bc
       -0.0024545465 0.009314578 0.022043647 -0.0115818605
0001d0 d0 99 7e bc 6b 3e af bc 29 e2 44 3c 16 c0 5b 3c
       -0.015539601 -0.021392068 0.012016811 0.013412496
0001e0 f2 19 e6 bc 89 84 31 3c b5 9e 03 bb 2b c8 c3 bb
       -0.028088544 0.0108348215 -0.002008361 -0.0059747896
0001f0 be 95 75 3c a2 e9 de 3c d1 be 13 3d 62 05 25 bd
       0.014989315 0.027211014 0.03607065 -0.040288337
000200 56 2b 1f bc 80 51 d4 3c e9 bf 40 3c 95 46 7e bc
       -0.009714922 0.025917768 0.011764505 -0.015519758
000210 b7 db fa bb 15 74 66 3b ee ec 8c 3c dd a1 2d 3c
       -0.0076555866 0.0035164405 0.01720282 0.010597673
000220 cb e3 c3 3b bd 80 1c ba 9d a7 5f bb 9e 69 05 3d
       0.005978083 -0.0005970111 -0.0034127005 0.032571428
000230 8a b5 66 3c e5 f0 f3 bc 72 74 26 bc e9 bd 9f bc
       0.014081368 -0.029777953 -0.010159599 -0.019499736
000240 8a 6e a7 3b 89 c5 13 bc 63 8f 8e 3c d7 dc 6b 3a
       0.005109613 -0.009019264 0.017402356 0.0008997446
000250 fb 52 e6 3b ac 5a 77 bc f9 95 f2 3c 64 45 2b bc
       0.007028935 -0.015097301 0.029612528 -0.010453556
000260 4f cc 6c bc f9 2c bd 3c d2 62 bf bc e1 b5 c2 3c
       -0.014453008 0.023092734 -0.02336255 0.023768367
000270 4d 4d a7 ba 29 58 c3 3b a2 4b 4f bc d9 66 94 3b
       -0.0012764126 0.0059614372 -0.01265231 0.004528862
000280 57 01 0d 3d 4f fd 64 bb f2 3c 89 bc f0 ed af 3c
       0.034425106 -0.0034941023 -0.016752694 0.021475762
000290 a6 45 09 3c cc eb af bc 19 ad 10 bd a3 5b 9b 3c
       0.008378422 -0.021474741 -0.03532133 0.018964594
0002a0 c1 4d 94 3b 2c 65 4a bc 10 03 2a 3d d6 59 ff 3a
       0.0045258706 -0.012353223 0.041506827 0.0019481729
0002b0 4c 13 e6 bb 42 3a 25 bc b8 89 c2 bc 02 cb c9 3c
       -0.0070213433 -0.0100846905 -0.02374731 0.024632934
0002c0 5c 77 08 bc d5 55 ee 3c da a9 8c 3b 33 ba de bc
       -0.008329239 0.029093662 0.004292709 -0.027188396
0002d0 ce 35 13 3a b1 d9 79 3c 8d 4b de bc a8 b7 7a bc
       0.00056156225 0.015249656 -0.027135635 -0.015302576
0002e0 be b8 c8 bb 64 02 1d bc c1 99 88 bc 52 10 b6 bc
       -0.0061255386 -0.0095830895 -0.016674878 -0.022224579
0002f0 44 a1 69 3c e2 26 5e 3c 8c 82 0c 3d 69 ff 0b 3d
       0.01425964 0.013559075 0.034304187 0.034179125
000300 9e cc 2c bc 09 17 d6 3b 57 e3 32 3c 7c a4 6d 3b
       -0.010546831 0.0065335077 0.01091846 0.003626137
000310 b2 98 ec bb 5f 8c b9 bb cc c6 df bc 67 3a 50 bc
       -0.007220351 -0.0056624855 -0.027316473 -0.012709237
000320 e3 d0 08 3d 1a 5a f9 3b 63 76 76 ba 7c 07 1c 3c
       0.033402335 0.007609618 -0.0009401796 0.009523269
000330 f7 65 01 bb 0f 55 35 3c 7d a1 9e bb 46 f0 b9 3b
       -0.0019744614 0.011067643 -0.0048410282 0.005674395
000340 bc 06 59 3c 02 19 64 bc 2c cc 0b 39 1f fc a1 bc
       0.0132462345 -0.013921978 0.00013332133 -0.019773541
000350 e2 9c 85 bb b0 d7 15 bc e6 7f 09 3d 9e ec 83 ba
       -0.00407754 -0.009145662 0.03356924 -0.0010065024
000360 eb 6e 3a bc 94 fc 13 3d d0 b3 8f 3c 91 67 58 bc
       -0.011378984 0.03612955 0.017541796 -0.013208286
000370 54 8f b3 3b 8f 5d fc 3b 0f c2 11 3c e3 8a cb bc
       0.0054797325 0.0077015827 0.008896365 -0.0248465
000380 be 90 0b bd 67 44 44 bb d6 c3 94 bb e4 e2 1e bc
       -0.034073584 -0.0029947998 -0.004539947 -0.00969765
000390 51 e6 76 3c ee f9 a2 ba 14 cf 41 bc dc a8 cd bc
       0.01506956 -0.0012434104 -0.011829156 -0.025104932
0003a0 dc 59 a4 bc aa 8b d8 bc ea 1b 2a 3b 22 51 7d 3b
       -0.02006238 -0.026433785 0.002595658 0.0038653095
0003b0 54 73 c5 3c 98 23 a0 bb ba c3 a7 bb 7c f8 d4 3c
       0.024102844 -0.0048870556 -0.005119768 0.025997393
0003c0 fe f1 99 3c 32 a4 05 bd 5b 08 29 3b b1 cd b6 3c
       0.018792149 -0.032627292 0.0025792334 0.022314878
0003d0 95 5f ac bb 54 79 54 bc 3f 96 8c 3c 51 37 af 3c
       -0.0052604177 -0.01296838 0.017161487 0.021388682
0003e0 1e a1 d0 39 eb c2 34 3c c4 a2 35 bb 46 68 26 3c
       0.00039792893 0.0110328 -0.0027715424 0.010156697
0003f0 04 6e a9 b9 e4 18 98 bc 8b 3e 92 bb 62 70 7c 3b
       -0.0003231616 -0.018566556 -0.004463022 0.0038519134

comExp/conv5/kernel/read/_5__cf__5:0 f4 [64, 64, 5, 5]
000000 46 e0 19 bc 3d 9f d1 ba 0a f3 02 3c 6b ef 87 3c
       -0.00939185 -0.0015992891 0.007992515 0.016593656
000010 38 8b 1f bb 38 18 ac 3b 1a f3 20 bb d6 2f 52 3c
       -0.0024344455 0.0052519105 -0.0024558962 0.012828788
000020 6c 5d 8a bc a1 59 0e 3d 32 2b 9e 3c 50 79 29 3c
       -0.01689025 0.034753446 0.019307707 0.010343865
000030 15 81 ec 3c 2b ab d9 bc 58 06 dc 3c e8 c0 43 bc
       0.028870145 -0.026570877 0.026858494 -0.011947848
000040 6d 56 98 3a 89 bc 7e bc 39 62 ac 3c 7a b6 2d 3c
       0.0011622437 -0.01554788 0.02104293 0.010602588
000050 09 dc 49 3c b5 f4 0a bd b8 72 d5 bb 53 13 ac bc
       0.012320527 -0.033924777 -0.0065139197 -0.021005308
000060 ec 36 01 bc ab 60 62 bc 97 c4 b6 3c 5e 08 e0 3c
       -0.00788663 -0.013816993 0.022310538 0.02734774
000070 fd 92 d8 bc c4 af 5e bc 0f fa c7 bb f6 04 01 3d
       -0.026437277 -0.0135917105 -0.0061028074 0.03149887
000080 93 4a eb bc f9 6a c4 b9 d5 35 e5 38 33 d3 92 3b
       -0.028722083 -0.00037463734 0.00010929598 0.0044807433
000090 fc 39 46 3c 76 d3 12 bd 01 c9 44 3c 4e d4 84 3c
       0.0120987855 -0.035846196 0.012010814 0.016214516
0000a0 cf e8 11 3d 17 85 db bb 8c 17 96 3b c3 15 db 3c
       0.035622414 -0.006699215 0.0045804437 0.026743775
0000b0 07 38 83 3c c7 98 0a 3c cd f9 bc bc 67 23 2e 3b
       0.016017927 0.0084592765 -0.023068333 0.0026571394
0000c0 9e 6d 88 39 03 7d c5 3a c0 0a 7a bc 0b 3e c9 b9
       0.00026021613 0.0015067164 -0.015261352 -0.00038383933
0000d0 6c 5c bf 3b 12 8e e7 3c d1 0e d3 ba 13 3e 84 ba
       0.005839875 0.028265987 -0.0016102438 -0.00100893
0000e0 51 4d dd bb 88 d4 01 3d af f4 3a bc 40 28 02 3c
       -0.0067536016 0.031696826 -0.011410876 0.007944167
0000f0 f2 29 c5 ba 50 77 cd 3b 6c af 08 bc 2f 79 ae bc
       -0.0015042408 0.0062703267 -0.008342605 -0.02129802
000100 c7 32 ae 3c 08 7d 0d 3c bb 26 c7 bc 1c 2f ae 3b
       0.021264447 0.008635767 -0.02431046 0.0053156745
000110 48 18 6c ba 01 0b bc bc a7 23 9b 3b dd b7 cd bc
       -0.0009006304 -0.022954466 0.0047344747 -0.025112087
000120 a5 ba de 3a bd 95 c6 bc 3c 72 71 3c 11 99 35 bc
       0.001699288 -0.024241323 0.014736708 -0.011083857
000130 0f d6 8d bc 41 6f e1 3c 90 70 77 bc 25 21 80 3c
       -0.017313985 0.02751887 -0.015102521 0.015640805
000140 35 4d e9 bc 62 f4 67 3c b9 9a af 3b 7e fb af 3c
       -0.028479198 0.0141573865 0.0053590205 0.021482226
000150 23 3c 54 ba 3c f4 ab bc 4a 1b 17 bc aa b1 8e 3c
       -0.0008096119 -0.020990483 -0.009222815 0.017418701
000160 9a da 07 3c a8 f4 85 bb 23 1b b4 bb 83 76 51 3c
       0.008291865 -0.004088003 -0.005496399 0.012784603
000170 fc 63 90 bc d1 e5 94 bb 2e ae b5 bb 12 9f 0a bd
       -0.017625801 -0.004543998 -0.0055444455 -0.033843108
000180 19 38 52 3c fa d8 69 bb 1d 76 aa 3b 36 71 7c 3b
       0.012830758 -0.0035682307 0.0052020685 0.0038519627
000190 65 e2 c5 3b 5f 81 bf bb d7 3f 13 bd 59 56 f0 bb
       0.006038951 -0.0058442797 -0.035949554 -0.007334512
0001a0 e2 28 35 bc 42 45 51 bc d6 68 45 3c 36 f0 40 3c
       -0.0110571105 -0.01277286 0.012048921 0.011776021
0001b0 9b fc 73 bc b6 47 04 3c 52 2d c3 3c af bb 85 3c
       -0.014891769 0.008073738 0.023825321 0.016324846
0001c0 39 05 1f 3c 64 3a b1 3b ae 68 91 39 e9 54 f4 bb
       0.009705835 0.005408572 0.00027734548 -0.007456411
0001d0 a9 8d 88 3c 4b 3a b6 3a e1 32 17 3d 7d 2d f3 3c
       0.016669111 0.0013902871 0.036913756 0.029684776
0001e0 f7 05 5d bc 77 b4 14 bd 69 a7 59 3b a4 57 d5 bb
       -0.013490192 -0.036304917 0.0033211356 -0.0065106917
0001f0 3f 78 32 3c e3 2c d0 3c 02 2c 9c 3c 73 10 06 3a
       0.010892927 0.025412029 0.019063953 0.00051141455
000200 e7 f0 26 3d 16 8b 17 3b 76 88 98 3c 09 98 8e bc
       0.040757086 0.0023123673 0.018619757 -0.01740648
000210 37 57 cf 3c 74 2f cf bb 96 77 12 3d 84 cd da bc
       0.025310142 -0.0063227955 0.035758577 -0.026709326
000220 e7 a0 b0 3c a8 4d cc bc c0 39 fd 3c b1 8b 40 3c
       0.0215611 -0.024939373 0.030911326 0.011752055
000230 94 08 cd ba 2c 04 e2 3b 9d ca 78 bc b4 6d d0 ba
       -0.0015642815 0.00689747 -0.0151850255 -0.0015901835
000240 fd 1e c8 bc 53 89 18 bb c0 3d 27 bd 03 cd 98 3c
       -0.024428839 -0.002327521 -0.040830374 0.018652445
000250 36 06 8f 3c 72 4b c9 ba f6 94 c0 bc 1d 1d af bc
       0.017459016 -0.0015357567 -0.02350853 -0.021376187
000260 ed a6 09 3d a9 6e 4d bc e6 49 b9 bb d6 63 0b bd
       0.03360646 -0.0125385905 -0.0056545613 -0.034030758
000270 8d 90 64 3a 96 cf 04 bd dd 9c e8 3b 45 98 b9 3b
       0.00087190495 -0.032424532 0.0070987777 0.005663904
000280 b6 c3 96 bc e2 b5 a1 3b 4f 0c a5 3b bd 52 62 ba
       -0.01840387 0.004935012 0.0050368677 -0.0008633545
000290 bc d8 d2 bb 1f 57 1d bb 3e 9f 09 bd 18 b6 38 3c
       -0.006434528 -0.0024008227 -0.03359913 0.011273883
0002a0 18 30 3f 3c c4 1c 4e 3c 22 ac 82 b9 83 81 a6 3c
       0.011669181 0.0125801 -0.0002492378 0.020325428
0002b0 6c f3 11 3c 9c 98 1b 3c c9 74 ef 3b b3 af 99 3a
       0.008908134 0.009496834 0.007307623 0.0011725336
0002c0 07 48 3e bc c3 79 db bb 36 d8 5f 3b aa c4 c7 3b
       -0.011613852 -0.0066978647 0.0034155971 0.006096442
0002d0 24 cc ef bc c3 dc b8 3a c8 d1 3e 3b f3 ac 32 bc
       -0.029272147 0.0014103878 0.0029116739 -0.010905492
0002e0 85 f9 85 bc 6e 6b c2 3c e5 16 65 3b ba 55 ab bc
       -0.016354332 0.023732867 0.0034956273 -0.020914901
0002f0 50 98 90 3c e9 2a 1d bc 48 92 86 bc d7 16 81 3c
       0.017650753 -0.00959275 -0.016427174 0.015757961
000300 7e 10 d1 bc 51 c6 b6 bc 7a 15 aa bb b7 65 70 bc
       -0.02552056 -0.022311362 -0.0051905485 -0.014672688
000310 7a 15 fb bc 0a a6 e6 3c 5d 53 1a bc 94 44 5f bb
       -0.03064989 0.028155345 -0.009419289 -0.0034067975
000320 56 2b 82 bb b4 09 8b bc b3 21 82 3c 80 e2 0a bd
       -0.003972451 -0.0169724 0.01588521 -0.033907413
000330 5b 9e 55 3c 9c f3 36 bc be c9 d8 bb f6 ae 5f 3c
       0.013038243 -0.011166479 -0.0066158464 0.013652554
000340 98 17 80 3b ae a6 d0 3c bf 61 45 bc 98 8f 8a 3c
       0.0039090626 0.025470104 -0.01204723 0.016914174
000350 36 ba d6 bc c3 18 e4 bb 5c 33 58 3c 81 b4 f0 bc
       -0.02621184 -0.0069609596 0.013195839 -0.029382946
000360 ea af 98 3b c9 4f e4 3b c6 55 de bb bc c6 ef bc
       0.0046596425 0.006967519 -0.0067851273 -0.029269569
000370 c3 8d 8c bc 25 61 a0 3c 07 c1 45 3c b0 c2 00 bd
       -0.017157441 0.019577572 0.012069947 -0.03143567
000380 21 5b 48 3c 50 da 5d 3c ed 01 6d bc df 80 16 bd
       0.012228758 0.013540819 -0.014465791 -0.036743995
000390 8e 72 f3 bb 12 41 f0 bc f1 44 09 bd 2a ef 9a 3c
       -0.0074294275 -0.029327903 -0.033513013 0.01891287
0003a0 86 97 79 3b be 18 1b bc 02 23 30 3b 68 f5 96 bc
       0.00380847 -0.009466348 0.0026876335 -0.018427566
0003b0 8a c3 07 bd 57 51 0f bc 08 94 c7 3b d5 1c 18 3c
       -0.033145465 -0.00874742 0.0060906447 0.009284218
0003c0 2c f7 e3 3a 91 da cb 3c cb aa 6c 3c cd b0 c1 bb
       0.0017392389 0.024884494 0.014445017 -0.005910969
0003d0 65 dd 4d 3c 7a 6a b8 bc 4c d7 c2 bc 23 c7 83 bc
       0.012564992 -0.02251171 -0.023784302 -0.016086167
0003e0 df 41 16 bd af f1 51 bc 8b 89 95 bb b2 76 57 bc
       -0.036683913 -0.0128139695 -0.0045635155 -0.013150858
0003f0 47 bb a7 bc f7 09 85 3c c6 02 10 3c 74 38 ca 3c
       -0.020475043 0.016240103 0.008789724 0.024685122

comExp/conv4/kernel/read/_4__cf__4:0 f4 [64, 32, 5, 5]
000000 57 05 6e 3c d3 ca 09 bc ab 69 2b 3c 7b 1e 5f bc
       0.01452764 -0.0084101735 0.010462205 -0.013618107
000010 00 7e e8 bc ec 5f f0 ba a8 f6 94 bc 48 c8 ba bc
       -0.028380394 -0.0018339134 -0.018184021 -0.02280058
000020 1f d5 4f 3c 3c e0 ed 3c 49 ec db bc 39 cf 8e bc
       0.012685089 0.029037587 -0.026846068 -0.017432796
000030 94 53 9d bb 8f 71 f3 bc 0c 6e e6 3b 7d 0c 9e bb
       -0.004801223 -0.029717235 0.0070321616 -0.004823266
000040 c8 01 0d bd ff 29 b6 3b 75 ba 1d bc b6 6d 5e bc
       -0.034425527 0.0055592055 -0.009626974 -0.013575962
000050 48 2b 9b bb ee 06 b7 bc 62 9e 5d bb cb 0c 98 3b
       -0.004735384 -0.022342172 -0.0033816327 0.004640197
000060 1e 80 86 bc 4b a1 58 bb 5c 5d 7c bc 6b b4 1c 3d
       -0.016418513 -0.0033055122 -0.015403118 0.038257997
000070 94 6b 20 bd 24 8e b1 bc ef 2e d9 bc 95 23 f6 3c
       -0.039165094 -0.021674223 -0.026511637 0.030046264
000080 a5 16 d1 bc 2f f5 09 bb 1b 65 da b8 54 85 0b bb
       -0.025523493 -0.0021050682 -0.000104138824 -0.0021289187
000090 80 82 15 bc ce c1 a6 3c 8c 7c e4 bc ec 66 54 3b
       -0.009125352 0.020356085 -0.02789142 0.003240998
0000a0 2d 17 1b 3d 04 29 64 bb 90 77 ea 3c 3f 1f 6e bc
       0.0378639 -0.0034814486 0.028621465 -0.014533817
0000b0 81 84 df bb 1d cd c7 bc b2 fd c5 bc 1b 68 22 bc
       -0.0068212156 -0.024389798 -0.024168823 -0.009912516
0000c0 28 0e 6a 3c 2b 04 09 3c e5 71 31 bc d6 ce 81 bc
       0.014285602 0.00836281 -0.010830377 -0.015845697
0000d0 71 ac 86 bc 7f 5c 5a 3c 86 ba d2 3c 3c 8a c9 bc
       -0.016439648 0.013327717 0.025723707 -0.024602048
0000e0 22 f7 02 bc e3 76 98 3c 0a 7e d6 3b b8 8c 1b bd
       -0.007993491 0.018611377 0.0065457867 -0.037975997
0000f0 f9 7c 24 bc 10 4c 21 bc e5 9c 76 bc 02 28 c9 bc
       -0.010039561 -0.009844795 -0.015052055 -0.02455521
000100 81 ea ef bb aa cb 97 bc 20 a6 e0 bb 1e 75 d9 3c
       -0.007321656 -0.018529732 -0.006855741 0.026545104
000110 b9 0d 38 3c 09 c1 44 3c 6a 79 78 3c cb bd 56 bc
       0.0112337405 0.012008914 0.015165666 -0.013106774
000120 fd 23 7e 3c 75 ae dc 3b fe 79 26 3b b8 36 e7 3c
       0.01551151 0.006734664 0.0025402303 0.028224334
000130 ae fb d4 bc 76 ba 73 bb 7d e6 15 3c a6 85 71 bc
       -0.025998916 -0.0037189997 0.009149191 -0.014741337
000140 e0 55 a9 3c 96 21 c5 3b a0 e9 94 3b ce 09 ee 3b
       0.020670831 0.0060159666 0.004544452 0.0072643524
000150 4c 17 48 b9 c7 eb 5d 3c 5d 62 b9 3b 9b a1 53 3c
       -0.00019082165 0.013544983 0.005657478 0.012916948
000160 e1 84 ac 3c f8 46 19 bc a6 78 b0 3c d9 49 3a bc
       0.021059455 -0.009355299 0.021541905 -0.011370146
000170 d8 bf 9b 3c 16 03 7b 3b ae 81 a0 bc 39 c2 bc 3b
       0.019012377 0.00383014 -0.019593086 0.005760458
000180 95 55 d0 bb eb 0d 47 3a 3f aa eb bb 64 0f 9b 3c
       -0.0063578584 0.00075933215 -0.007191926 0.018928237
000190 60 23 a7 3c b1 3a a1 3c fb 1c e1 3c 94 76 a7 bc
       0.02040261 0.019681307 0.02747964 -0.020442285
0001a0 c1 96 a0 3c dd 33 03 3d 62 38 17 3c 0b ff f3 3b
       0.019603135 0.032031883 0.009229751 0.007446175
0001b0 b6 ee b2 bc 3f a1 bd bc 16 43 34 ba cb 48 db bc
       -0.021842342 -0.023148177 -0.00068764517 -0.026768109
0001c0 e0 9f ca 37 3c 23 d5 bc e7 3a 29 3c 9a 89 a4 3c
       2.4154724e-05 -0.026017778 0.010328985 0.020085145
0001d0 0f 18 b1 3c 3b 81 b5 bb 56 7a 1b 3b 5a 42 d5 39
       0.021617917 -0.005539087 0.002372404 0.00040675962
0001e0 cc 33 be bc 5b 8d 20 bc 93 ca c9 3b 75 3c 12 3a
       -0.023218058 -0.009799327 0.006158182 0.0005578467
0001f0 2b 69 30 bc c1 7e 6e bb eb 52 36 3c 01 4f 15 3d
       -0.0107672615 -0.003639147 0.011128168 0.036452297
000200 bd dd 0b bc f0 b2 9f bc fe 0f 4e 3b fa 43 18 bd
       -0.008536753 -0.019494504 0.0031442638 -0.037174203
000210 60 85 7c 3c 42 12 cd 3c 43 f8 9a 3b b9 1b 19 3b
       0.015412658 0.02503312 0.004729302 0.0023362471
000220 14 dc c0 3c 8d cd e4 39 16 bb 67 3c ea b0 e1 bb
       0.023542441 0.00043640696 0.014143726 -0.006887545
000230 98 d0 16 bc c7 20 13 3c 5d 3e 4b bc 84 1d 51 3b
       -0.009205006 0.008979983 -0.012405005 0.0031908462
000240 cd 01 f2 39 f7 ea 88 bc a8 c3 d5 3c d1 c1 15 3c
       0.0004615918 -0.016713602 0.026094273 0.009140448
000250 e0 d7 bd 3c 12 63 15 bc de 2b 53 bb 93 29 df bc
       0.023174226 -0.0091178585 -0.0032222192 -0.027241504
000260 7d 54 5e bc 4d 7d b6 3c cf 21 04 3c c5 6d 2e bd
       -0.013569948 0.022276545 0.008064701 -0.042585153
000270 3c 5d 17 3d 60 84 bd bb 6b 24 7a 3c 68 e3 14 3d
       0.03695415 -0.0057836026 0.015267472 0.036349684
000280 95 07 5e bb 78 f7 c4 bb 81 98 7b 3c c2 42 5a bc
       -0.003387903 -0.006010946 0.015356184 -0.01332158
000290 52 b5 4e bc f0 e5 f4 3a 9d 92 1c bb 41 5d ce bc
       -0.012616472 0.0018684249 -0.00238911 -0.025190951
0002a0 78 95 07 3d c1 8e 04 3c 67 0e 37 bc c2 ff 5d bb
       0.03310153 0.008090676 -0.011172867 -0.0033874367
0002b0 3e f4 85 3b 76 79 9e 3b d7 f2 87 3c 14 e7 df 3c
       0.004087954 0.0048362566 0.016595287 0.027331866
0002c0 53 78 e1 3c 84 5f 26 3c dd 4c 03 bc ca 96 d1 bc
       0.027523195 0.010154609 -0.008013931 -0.025584597
0002d0 bc 74 b7 3b d7 5f 82 3c 6a ed d2 3b 70 ff d0 3c
       0.0055986326 0.01591484 0.0064369934 0.025512427
0002e0 f4 a7 55 bc c2 52 4d bb cc 7d 55 3c 1a 51 9f bc
       -0.013040531 -0.0031329845 0.013030481 -0.019447852
0002f0 ca a0 3f bc 10 49 ea bc f6 66 85 bc a5 8c 21 bc
       -0.01169605 -0.028599292 -0.016284447 -0.009860192
000300 04 44 07 bd 21 ff da 3a fa be e0 3a b0 26 73 3b
       -0.03302385 0.0016708114 0.0017146759 0.0037101917
000310 bc 22 ba 3c 9d 60 ce 3c 2f da 1a bc e8 eb 0e bd
       0.02272164 0.025192553 -0.009451433 -0.034892946
000320 17 09 96 3a 43 44 a0 3c 65 98 ab 3c 18 8d 01 3d
       0.0011446801 0.0195638 0.02094669 0.031628698
000330 0e c5 27 bc bc 2a 7d 3c 43 d4 99 3c b8 93 1e 3c
       -0.010239853 0.015452083 0.018777972 0.009678774
000340 e6 f6 4c 3c 27 33 45 bc 43 dc 64 ba 88 df 78 bc
       0.012510037 -0.012036121 -0.00087303313 -0.015190013
000350 77 13 e2 39 5e 80 7b 3c fc 64 06 bc d9 b7 25 bb
       0.00043120582 0.015350429 -0.0082027875 -0.0025286584
000360 ce 99 df b9 02 bb 22 bc b7 e5 d9 3b 74 68 ae bc
       -0.00042648468 -0.009932281 0.0066496986 -0.021290042
000370 b0 62 14 bc 27 a7 9e 3c ce a5 b4 bb d8 69 84 bc
       -0.009056732 0.019366814 -0.0055129295 -0.016163751
000380 af 83 c5 3b 33 ee b5 bc 3e b4 86 bb 75 92 34 bb
       0.006027661 -0.022208309 -0.004110842 -0.0027553116
000390 ba 24 8d bb f1 11 80 bc ce ee d1 3a 46 bd 20 bc
       -0.0043073567 -0.015633555 0.0016016604 -0.009810751
0003a0 ee f7 93 bb 16 e7 c0 3c 0e 4e 00 bc c0 f6 47 3a
       -0.0045156395 0.02354769 -0.00783111 0.0007628016
0003b0 41 fd 13 3d 89 30 72 bc 1f 59 e1 bc 52 de 27 bd
       0.036130194 -0.0147820795 -0.027508317 -0.040983506
0003c0 4b 5f df 3c f7 e2 aa bc 7d 1a d0 3a 33 28 de 3c
       0.027267119 -0.020860178 0.0015877035 0.027118778
0003d0 7b 1c ff bb f8 74 ba 3c d6 ef f5 bc b1 d5 28 bc
       -0.0077853776 0.022760853 -0.03002159 -0.010304854
0003e0 6f 78 36 3c da d9 26 bc 34 d7 df 3c d2 37 b0 b9
       0.011137112 -0.010183776 0.027324297 -0.00033610925
0003f0 80 11 0f 3c de 8f a9 bc 6f 42 9d bc a2 73 6a 3c
       0.0087322 -0.020698484 -0.019196717 0.014309796

comExp/conv3/kernel/read/_3__cf__3:0 f4 [32, 32, 5, 5]
000000 9f c4 b5 bc df 2e 3f 3c 7a 4c cd bc e6 a7 b7 3b
       -0.022188483 0.01166889 -0.02506088 0.005604732
000010 2c fd 45 bc a8 67 66 bc e6 33 15 bc e9 20 a0 3b
       -0.012084287 -0.0140627995 -0.009106612 0.0048867357
000020 52 8e 19 3d a5 97 a2 3c e4 01 dc 3b dc e0 91 3c
       0.037489243 0.0198477 0.0067140926 0.017807417
000030 b8 98 ec 3b 0a a3 34 bb dc 40 32 3c e2 a3 78 3b
       0.007220354 -0.0027563 0.0108797215 0.0037939479
000040 42 d2 3a 3b 1e ea 50 bc 97 66 93 3c 3e d6 b6 3b
       0.002850667 -0.01275113 0.017993255 0.005579739
000050 cf 21 a1 bc aa 68 d9 3c 22 0a 3f 3c 46 ff f6 3c
       -0.019669442 0.026539166 0.011660131 0.03015102
000060 4a 20 c8 3c 18 30 b1 bc cb d3 ce 3c 52 9b bd 3c
       0.02442946 -0.021629378 0.025247475 0.023145352
000070 6e de 0a 3d 19 03 0d 3d e5 9a ba 3c 8e f7 c7 3b
       0.03390353 0.034426782 0.022778938 0.006102509
000080 1d 76 e8 bb 46 21 c2 3c 4a 5b 03 3d a1 9b f2 3b
       -0.0070941583 0.023697507 0.032069482 0.0074038063
000090 22 8d a0 bb c0 01 9a bc 5b 88 fd bc 93 d7 1d bc
       -0.004899637 -0.018799663 -0.030948808 -0.009633916
0000a0 b3 bd 4a 3c 19 69 3c bc 0f 77 bf 3c 1d 28 a7 bb
       0.012374329 -0.011499667 0.023372201 -0.0051012174
0000b0 83 54 03 bc 32 80 de 3c d4 4b 56 bc 9b 2c d0 ba
       -0.008015755 0.027160738 -0.013079602 -0.0015882434
0000c0 d5 9c 95 3c 6f fc 39 ba c4 cf f3 bb f7 d6 93 3c
       0.01826326 -0.00070948055 -0.007440539 0.01804684
0000d0 ff 88 5e bb 28 28 d8 bb 39 00 b3 3c 9b 54 e4 3b
       -0.0033956168 -0.006596584 0.021850692 0.0069680936
0000e0 63 d2 01 bc 7e f7 9c 3c 0e 72 90 bc d0 2c fd 3c
       -0.007923695 0.019160982 -0.01763251 0.030905157
0000f0 77 8d ec 3b 88 a1 00 3c eb 15 d7 b9 2f cf bd 3b
       0.0072190124 0.007851012 -0.00041024326 0.0057925205
000100 61 14 e1 bc 5c 44 06 bd 36 c9 93 bc 1c dd 01 3d
       -0.027475538 -0.032780036 -0.01804028 0.031705007
000110 bc 83 71 bb a9 77 27 3b ed a7 b3 bc ba d8 fe bc
       -0.0036852201 0.00255535 -0.02193066 -0.031109203
000120 ba a4 9b bb 97 91 0b bc cf 24 41 3c 4c d5 ac 3b
       -0.0047498615 -0.008518598 0.011788561 0.0052744504
000130 b1 94 c7 bb a1 44 b5 bc b6 01 f9 3c 37 f9 01 3d
       -0.0060907234 -0.022127451 0.030396324 0.03173181
000140 13 e7 04 3c 5e 68 d9 3c ff 78 3d 3c 79 a4 1a 3c
       0.008111733 0.026539024 0.011564492 0.009438627
000150 90 b2 28 bc 1e e1 3c bb af b1 15 bc 08 1a cf 3c
       -0.010296479 -0.0028820704 -0.009136601 0.025280967
000160 5e 16 ee 3c f2 ea ed 3c dd 5e b8 3b 59 2b 2d bc
       0.0290634 0.029042695 0.005626543 -0.010569417
000170 94 e4 2e 3c 4b c6 5c bc 96 07 f3 bc 4b 92 16 bd
       0.010674614 -0.013475011 -0.029666703 -0.03676061
000180 93 78 76 3c 3c 49 9c 3b 42 62 fd 3c 79 b7 4b 3b
       0.015043396 0.0047694724 0.030930642 0.00310847
000190 e3 0e f7 3c 08 2a 85 3c 22 00 0d 3c 9b 63 2e 3c
       0.030158466 0.016255394 0.008605989 0.010643865
0001a0 09 73 0c bd de 2d f4 3b d1 f0 ff bc cf e4 d8 3c
       -0.034289394 0.007451757 -0.03124276 0.026476292
0001b0 0a 8d 0f bd 4f 60 7f bb 51 d1 f6 bb 81 b3 57 bc
       -0.035046615 -0.0038967317 -0.0075322767 -0.013165356
0001c0 12 7a 82 3b 17 73 7d bc d6 94 b0 3c 64 5f 82 3c
       0.003981837 -0.015469334 0.021555346 0.015914626
0001d0 2b bb 8c 3b df d1 64 bc 4e 88 8a bc da f4 bd bc
       0.004294773 -0.013966053 -0.016910698 -0.023188043
0001e0 dc 7f 47 3c 6a 3e 22 bd 3d 24 a6 bc 5d 75 0a bd
       0.01217648 -0.039610304 -0.020280952 -0.033803333
0001f0 e6 0b 77 3c 12 79 3b bc b0 df 39 bc aa 27 07 bc
       0.01507852 -0.01144244 -0.011344835 -0.008249203
000200 91 97 92 3c 40 fe c7 bc 2b 77 d3 bc ab c2 e8 3c
       0.017894538 -0.024413228 -0.02581366 0.028413137
000210 60 ab c7 3b 02 5a f0 bb d1 b8 77 3c e7 e8 a6 bc
       0.0060934275 -0.0073349485 0.015119747 -0.020374728
000220 42 57 b3 3b 94 41 b1 bb d1 f3 69 bc 07 41 65 3c
       0.0054730484 -0.005409429 -0.014279322 0.0139925545
000230 16 95 79 bc cc 74 3c 3c 6f dc 08 3d 8a 4c 61 bc
       -0.015233299 0.011502456 0.033413347 -0.0137511585
000240 c4 ee 03 3c f7 70 c4 bc d0 75 ee bc 74 8c 1b 3c
       0.008052532 -0.023979647 -0.029108912 0.009493936
000250 c4 0b 9a bc 5c ce 8f bc ad 21 d0 bc 4e 27 47 bb
       -0.018804438 -0.017554455 -0.025406683 -0.0030388418
000260 fc 5c 43 3c 4c 5a c0 bb a7 87 12 bd 67 b8 09 bc
       0.011924025 -0.005870139 -0.0357739 -0.008405781
000270 54 e0 c6 3c 80 27 f1 bc 84 04 26 3c a9 5f dd 3b
       0.02427689 -0.02943778 0.010132913 0.0067557883
000280 e8 df b6 bc c7 b9 2d bc ec e1 b7 3b d8 80 39 3d
       -0.022323564 -0.010603375 0.005611649 0.04528889
000290 0c c5 1d 3b 26 b0 40 ba 45 be d1 bb 6e f5 30 3c
       0.0024073748 -0.0007350467 -0.0064008557 0.0108007025
0002a0 4a f2 29 3b 39 30 24 bb ee b5 c1 bc 01 d8 ba bc
       0.002593177 -0.0025053157 -0.023646321 -0.022808077
0002b0 f5 b3 8c 3b 14 00 bc bc 55 c6 11 bc 9f 0b 61 bc
       0.0042939135 -0.022949256 -0.008897384 -0.013735681
0002c0 0d e2 8c bb e5 5e aa 3a a9 94 1e 3b 3f 68 3a 3b
       -0.0042994083 0.0012998251 0.0024197495 0.0028443483
0002d0 f8 81 89 3c 40 ac 3b bc 34 a3 ad 3c aa 4d 96 3c
       0.016785607 -0.011454642 0.021195985 0.01834758
0002e0 05 a3 b3 bc 56 b1 89 3b ff 96 c1 bc 1e 53 fb 3c
       -0.02192832 0.0042020483 -0.02363157 0.030679282
0002f0 68 ac f8 bb b3 c2 72 bb f7 5b d1 bb 69 17 77 3c
       -0.007588912 -0.003704232 -0.006389137 0.015081265
000300 d0 af 52 3c 6e e8 aa 3b 70 af 3f 3c 14 8e bc bc
       0.0128593 0.005215696 0.011699542 -0.023016967
000310 46 21 43 bc 97 f5 94 bc 70 af 26 3b d4 b9 ad 3c
       -0.0119097885 -0.018183513 0.0025434159 0.021206774
000320 55 1e 9c bc fb 26 7a bb 0c d1 7a bc 15 fb 10 bc
       -0.019057432 -0.0038170207 -0.01530863 -0.008848925
000330 60 6d 56 37 ae 57 da bc c9 2a 6e 3c 9b eb 41 bc
       1.278086e-05 -0.026653137 0.014536568 -0.011835958
000340 e2 5f d6 bc 30 71 6a 3a d7 03 86 bb 57 e1 46 bc
       -0.026168767 0.0008943258 -0.004089813 -0.012138686
000350 c6 aa 03 3d b1 28 4a bc 7e 2b 89 bc 4d 0d af bb
       0.032145284 -0.012338803 -0.016744372 -0.0053421617
000360 7c ec 16 bc 91 c8 a5 3c ec 20 a5 3c ea fa f2 3c
       -0.009211656 0.02023724 0.0201573 0.02966066
000370 4d de d3 3c c6 4a b9 ba 48 ad 2b 3c 73 ef 89 3c
       0.025862837 -0.0014136664 0.010478325 0.016837811
000380 db 7e 96 3c f4 c8 94 3c 64 37 12 bb 35 9c ef bb
       0.018371036 0.018162228 -0.0022310847 -0.0073123225
000390 03 ef 65 3c 54 6f 76 3c 2b c2 47 bc 0d 25 3d 3c
       0.014034036 0.015041191 -0.012192289 0.011544478
0003a0 4e 3e ff 3b 1c 07 04 3c 67 5c 30 3c 9b cc 80 3c
       0.0077894097 0.008058336 0.010764218 0.015722563
0003b0 0d 39 2a bb 82 d5 91 3c c6 d6 84 bc 36 2a 8e 3b
       -0.0025973946 0.017802004 -0.016215693 0.004338528
0003c0 6b db 76 3b 58 15 fb bb f0 c5 31 3b b0 f6 2c bc
       0.0037667404 -0.0076624565 0.0027126037 -0.010556862
0003d0 00 a6 bb 3c 2f ff 6d bb a5 68 d0 bb 83 29 f3 3a
       0.022906303 -0.0036315431 -0.006360131 0.00185518
0003e0 f1 68 4f bc 72 cc 7d 3b f1 d3 f3 3c dc 8d f6 3c
       -0.012659297 0.0038726595 0.029764147 0.03009694
0003f0 80 23 58 bc af b8 47 3c ed ff 07 3d 7b 49 e6 3c
       -0.013192058 0.012190028 0.033203054 0.02811121

comExp/conv2/kernel/read/_2__cf__2:0 f4 [32, 16, 5, 5]
000000 13 bf b5 bb 34 e3 ff 3c cf 04 82 bb f9 f6 95 bc
       -0.0055464595 0.031236269 -0.0039678584 -0.018306242
000010 25 5f 94 bb 18 fe 85 3c b6 3a 95 3c 3f ac 1f 3d
       -0.0045279437 0.016356513 0.018216472 0.038982626
000020 d0 08 c0 3b 63 00 7f bc a8 1c c5 bb 01 d3 bc bc
       0.0058604255 -0.015564057 -0.006015379 -0.023049833
000030 d5 4c b5 bc 47 0e a3 3c 07 8c 8a 3c 37 42 13 3d
       -0.022131363 0.019904269 0.016912473 0.03595182
000040 fa 7c c8 3b 36 36 0b 3d f0 3e f5 bc d3 40 b9 3b
       0.006118414 0.033987246 -0.029937238 0.0056534796
000050 19 33 c7 3b 92 d2 ee bb 5a fb 40 bb 15 67 21 3c
       0.0060790894 -0.0072882855 -0.0029446692 0.009851237
000060 94 e3 6a bc d8 ea 0d bd 95 5d e7 bc 24 42 96 bb
       -0.014336485 -0.034647793 -0.028242866 -0.0045855213
000070 15 a4 af bc d5 ef 92 bb 32 1c 1d 3c 58 79 99 bc
       -0.021440545 -0.0044841566 0.009589242 -0.018734619
000080 84 c6 9b bc 24 a1 de bc 6c 8d ad 38 fd 73 03 bd
       -0.019015558 -0.027176447 8.275625e-05 -0.032093037
000090 08 62 3a bd 40 80 87 ba a0 01 77 3b 09 c9 93 3b
       -0.045503646 -0.0010337904 0.0037690178 0.0045100492
0000a0 17 e6 9e 3c a7 d5 33 bc 7d 77 2b bd d2 d3 9f bb
       0.019396825 -0.010976232 -0.041862 -0.004877546
0000b0 66 e9 14 3d fe 66 02 3b d9 6e 10 3d 68 5b 73 b9
       0.0363554 0.0019897814 0.035261963 -0.00023208337
0000c0 58 6c 17 bd 93 d4 a2 3b 4f 5f 20 bc db d1 17 3d
       -0.03696856 0.0049691885 -0.009788348 0.03706537
0000d0 12 b0 f6 bc f4 32 51 3c aa e0 b7 3b 0b 02 a4 3a
       -0.030113254 0.012768496 0.005611499 0.0012512816
0000e0 88 74 c8 3c b5 f2 b0 3b ea a4 ed 3b 38 f9 6a 3b
       0.024469629 0.0054000267 0.0072523253 0.0035854112
0000f0 e9 62 0d bc 4c cc ce bc ee a1 ce 3b 73 38 d7 3c
       -0.008629539 -0.0252439 0.0063059246 0.026272034
000100 e9 52 43 3c 5b 0a ce 3a f1 7d 21 bc 42 28 10 3c
       0.011921623 0.0015719639 -0.009856687 0.008798661
000110 eb 52 99 3c 5a f3 7e bc 1a 7f bf bc aa 51 f3 3b
       0.018716296 -0.015560949 -0.023376036 0.0074255066
000120 61 c7 b3 3c 19 4b c5 b9 f4 59 28 3d 7a 09 9a bb
       0.021945657 -0.0003763072 0.04110141 -0.0047008367
000130 1a ee a7 bc 5a f5 3f bb 30 29 e2 3c 80 04 27 3d
       -0.020499278 -0.0029290528 0.02760753 0.040775776
000140 dc c3 ce 3c e9 6a ec 3c 8d 3d 0e 3c fd 5d 30 3d
       0.025239877 0.028859572 0.008681667 0.043058384
000150 12 6d dc 3c 62 57 d7 3b fa e6 5a bc 19 c7 00 bd
       0.026907478 0.006571696 -0.013360733 -0.031439874
000160 e2 d8 85 bc 98 85 42 bc 3a b0 91 3c 6c 5c 02 bc
       -0.01633877 -0.011872672 0.017784227 -0.007956605
000170 2a 52 d3 3c 6a aa b1 3a 80 3e cd bb 15 2a 33 bc
       0.025796015 0.0013554816 -0.006263554 -0.010935326
000180 64 a7 67 bc d2 4d 48 3c 12 8e f4 b9 b0 69 84 3c
       -0.01413903 0.012225585 -0.00046645157 0.016163677
000190 b1 4e df 3c dd 38 e6 bb 1b 0a 13 bb 49 dc 20 bd
       0.027259203 -0.0070258216 -0.0022436443 -0.03927258
0001a0 92 38 68 bc 8e 90 83 3c ee 3c 9e 3c 83 e2 24 3d
       -0.014173644 0.01606014 0.019316163 0.04025508
0001b0 db 50 e4 bc a5 58 dc bc 72 e8 ad bc 9f 9f 99 3b
       -0.027870586 -0.026897738 -0.021229003 0.004688218
0001c0 7c e4 b5 3c a2 83 9f bc ef b4 c5 ba 2d 38 1b bc
       0.022203676 -0.019471947 -0.001508383 -0.009473843
0001d0 f8 87 4b 3c 43 1f f5 bb 32 0d 33 3c f4 54 8c bc
       0.012422554 -0.0074805333 0.010928439 -0.017130353
0001e0 8c 92 20 bd bb 98 fb 3c 31 e9 c4 3c 13 66 c3 3b
       -0.039202258 0.030712476 0.024036976 0.005963096
0001f0 2c 22 99 3c 1a 56 17 3c eb 51 45 3c fc ee e3 3b
       0.018693052 0.009236837 0.012043457 0.0069559794
000200 28 52 ce 3b df c2 05 bd 2d 07 ec 3b ac 40 95 3c
       0.006296415 -0.032656547 0.007203004 0.018219315
000210 a0 d9 37 3a a6 28 a7 ba 8c d7 f3 bb 82 3b ce 3b
       0.00070133246 -0.0012753203 -0.0074414667 0.006293715
000220 4e 39 45 ba 89 59 aa 3c 1e 55 56 bb b9 5b 30 3d
       -0.00075234927 0.020794647 -0.0032704542 0.043056224
000230 1b 1c 07 bd 8d 91 41 bc 0f e8 99 3c de 49 16 3d
       -0.032985788 -0.011814487 0.018787412 0.03669154
000240 fb 2c db bc bf 6f 30 bc 73 64 75 bb b6 7f 1a bd
       -0.026754847 -0.01076883 -0.0037443906 -0.03771945
000250 30 ac 13 bc a4 4d c9 3c de 6d 8d 3c 23 4c d2 bc
       -0.009013221 0.024573155 0.017264303 -0.02567107
000260 f6 ea 47 bb 02 11 62 bc 88 88 a1 3c b5 3e 2a bc
       -0.0030505038 -0.013798 0.019718423 -0.010390927
000270 ec 1a 0a ba 7f eb 2a bc 9a 96 81 3c d9 9d 31 3c
       -0.0005268294 -0.010432123 0.015818883 0.0108408565
000280 36 0a 98 bc 43 55 f6 b9 d0 cf 1f bc 8a 9b 9c 3c
       -0.018559556 -0.000469843 -0.009754136 0.019117136
000290 b6 f6 ea 3c 5c 53 0b bc 63 f7 fd bb 36 79 a7 bc
       0.028682094 -0.008503761 -0.007750438 -0.02044354
0002a0 f5 94 51 bb a9 5b f5 3c 01 fe 42 3c 91 11 06 bd
       -0.0031979654 0.029950934 0.01190138 -0.032731596
0002b0 85 da 00 39 ad b3 0b bd 10 92 51 bc 99 d3 15 3d
       0.00012288436 -0.0341069 -0.012791172 0.03657875
0002c0 b8 51 73 bc ff e7 c7 3c e1 59 0c bc dc 5d 23 b8
       -0.014851026 0.024402617 -0.008566351 -3.894964e-05
0002d0 a9 7d 67 3c 72 75 a3 bc cb 0f 8e 3c 37 b8 09 3c
       0.014129081 -0.019953463 0.017341515 0.008405737
0002e0 c2 78 82 3a c5 d1 77 3b f3 f9 0e bd f1 69 ae bc
       0.0009954202 0.0037814241 -0.03490634 -0.021290751
0002f0 39 d8 ed 3b 7d 7c ce bc 3f 0c e6 bb 0a 4d d2 bc
       0.0072584418 -0.025205845 -0.007020503 -0.0256715
000300 6c a7 0e bd b4 94 ce 3c 0e 72 2b 3c 5c b6 a9 3a
       -0.034827635 0.025217392 0.0104642045 0.0012948024
000310 73 7b d9 bb 6c da 5b bc 8f c3 8b bc 4e e5 5e 3c
       -0.0066370307 -0.013418775 -0.017061023 0.013604475
000320 65 41 eb 3b 86 de 65 3b 89 44 b5 3c 4a 26 09 3d
       0.0071794265 0.0035075261 0.022127407 0.03348378
000330 0c 54 9b 3b 18 0b 78 bc 29 4f dd 3a 7a 31 15 3c
       0.004740244 -0.015139364 0.0016884553 0.009106034
000340 f0 a9 24 bc 1c dd c6 39 91 a1 63 bc 0e b3 af bc
       -0.010050282 0.00037930242 -0.013893501 -0.021447685
000350 b2 85 9b bc 5b df c5 3c 64 c6 07 3d 3f 53 f5 bc
       -0.01898465 0.024154356 0.033148184 -0.029946921
000360 0d ba 77 bc 3f 1b 3e 3b f3 77 0c bd 7f bc 9f 3c
       -0.015120042 0.002900794 -0.03429408 0.019499062
000370 a9 ec fc bc 34 9f 12 39 37 c0 1d bd b4 f9 58 3c
       -0.030874567 0.00013982953 -0.03851339 0.013243128
000380 97 d8 d5 3c c1 b2 04 bc 90 79 1a bc d5 da 99 3c
       0.026104255 -0.008099259 -0.009428397 0.018781105
000390 d6 11 f1 bc 34 a2 99 38 4b f8 82 bc 37 40 a4 3c
       -0.02942745 7.325821e-05 -0.015987536 0.020050151
0003a0 71 01 c4 bb 44 90 2f ba f9 72 c8 bc 71 34 a9 bc
       -0.005981617 -0.00066972175 -0.024468886 -0.020654889
0003b0 6a 55 37 3b f1 ca e8 ba 0d cf 3d 3c 6b 1d 0b bd
       0.0027974495 -0.0017760677 0.011585009 -0.033963602
0003c0 8d a8 9f 3c ca 4b eb bc 74 26 c9 3a f2 55 4b bb
       0.019489551 -0.028722662 0.0015346543 -0.003102657
0003d0 1c 0d b4 3c d5 84 e6 bc a5 6d 10 bc 04 e7 08 3b
       0.021978907 -0.028139511 -0.008815204 0.002088965
0003e0 a4 75 48 bc 1f a7 22 bc f1 42 db bc 88 e7 70 3b
       -0.012235079 -0.00992754 -0.026765319 0.0036759097
0003f0 d2 d3 55 bc 40 b9 2a 3d c0 c7 db bb a2 92 38 bc
       -0.01305099 0.041680574 -0.0067071617 -0.011265429

comExp/conv1/kernel/read/_1__cf__1:0 f4 [16, 16, 5, 5]
000000 2f 52 30 bd dd 0e 9c bc 84 ca c2 b9 8b a0 06 3d
       -0.043047126 -0.019050056 -0.0003715345 0.03286795
000010 9f 5a 1f bb 2a f4 e1 3b c4 8e d3 3c f0 5c 5f 3c
       -0.002431549 0.0068955617 0.025824912 0.013632998
000020 f5 ad 74 3c e1 19 ee 3c e7 9d 7f bb 62 76 3a ba
       0.014934053 0.029065074 -0.003900403 -0.00071129773
000030 eb f5 5c ba 2a ce 2e 3d 6b 49 a6 3c ea a0 ac 3c
       -0.00084289786 0.042677082 0.02029868 0.021072824
000040 b1 70 ba 3b 9a a0 84 3c 20 48 26 3d 0a bc 59 3d
       0.0056897034 0.016189862 0.040596128 0.053157844
000050 75 51 59 3c 80 c6 62 bc a0 24 c5 bc 84 27 eb 3b
       0.01326405 -0.013841271 -0.024065316 0.0071763415
000060 5a 91 04 3d 77 34 b9 3c b8 43 f2 bc 2e 27 e6 bc
       0.03236518 0.022608025 -0.029573306 -0.028094854
000070 52 a6 0e 3c 34 31 7e 3b 1d 47 9b 3a 74 4b 07 3c
       0.008706646 0.0038786652 0.0011846755 0.0082577355
000080 2d f6 1e bc 42 68 05 3d 96 2f 58 bc d9 39 53 ba
       -0.009702248 0.03257013 -0.013194939 -0.0008057631
000090 ae 7d 64 bc d7 08 fe 3b 29 4e de 3c 5e 3d 64 3c
       -0.01394598 0.0077525186 0.027136879 0.013930647
0000a0 89 1f 8f bb bb 48 f7 bc 9b 43 6d bc 86 14 a2 bb
       -0.004367773 -0.030186048 -0.01448145 -0.0049462942
0000b0 c5 00 9d bb 2d 8f e1 3c b7 a7 2f 3c f7 a2 81 ba
       -0.0047913515 0.027534092 0.010721139 -0.0009890486
0000c0 40 f4 95 bc 18 bc 64 bb 9c aa 46 3c f6 00 2c bc
       -0.018304944 -0.0034902152 0.012125637 -0.010498276
0000d0 ef 75 7c bc f2 72 94 bc fd e8 96 bb 02 a7 7b bc
       -0.015408977 -0.018121216 -0.004605411 -0.015359642
0000e0 56 19 89 bb f3 65 ab 3c 3a 15 9a bc 5b 25 ad 3b
       -0.0041839285 0.020922637 -0.01880895 0.005283994
0000f0 a2 88 3b 3c 33 28 b4 3c 83 d4 91 bb 31 bf 34 bc
       0.01144615 0.021991825 -0.004450382 -0.011031912
000100 f9 db 1a bc 33 e9 ef 3b 42 f2 d3 bc 3e 9a b9 3b
       -0.00945186 0.0073215007 -0.025872353 0.005664139
000110 a8 f1 9f ba b3 66 59 ba 7b 39 2c bc 2d 1c 80 3c
       -0.0012202756 -0.00082931964 -0.010511751 0.015638435
000120 ce 5a 1d bd 9a a3 b2 3b cb 2a a0 bc 4b d7 9e bc
       -0.038416676 0.0054516317 -0.019551655 -0.019389769
000130 ad 4a a7 bc e9 4f 50 bc de d0 a3 3c c8 87 25 3c
       -0.02042135 -0.012714365 0.019997057 0.010103174
000140 38 d7 77 3b a6 81 20 3d 56 4f 2f bc 9b 7f a6 3c
       0.003781749 0.039186142 -0.0107000675 0.020324519
000150 30 53 97 bc 5d 7b 90 bb b6 9e 77 bc 24 1d e9 bb
       -0.018472284 -0.0044092373 -0.015113523 -0.0071140695
000160 c2 bd 14 3c 4c f3 40 3c d6 29 72 3b 52 96 bf bb
       0.009078445 0.0117767565 0.0036951206 -0.005846777
000170 cf b3 34 3c e8 03 3f 3c ec 24 e9 3c 47 38 91 bc
       0.011029198 0.011658646 0.028459989 -0.01772703
000180 73 aa 2c 3c 6f f9 b4 3b b0 95 5c 3c 9a 3c 80 bc
       0.010538685 0.005522899 0.013463423 -0.015653897
000190 49 92 57 bc 52 03 37 bb f2 1e 8f bc 41 ea a2 3b
       -0.013157436 -0.0027925563 -0.01747081 0.004971773
0001a0 98 a9 b4 bb fc 99 ca 3c ea c7 4a 3b cd 7f 96 bc
       -0.005513381 0.024731629 0.0030941912 -0.018371487
0001b0 39 72 89 bc c9 1f f6 3c 20 81 ce 3b 4d e3 d6 3c
       -0.016778098 0.030044453 0.006302014 0.026231432
0001c0 37 ce 2d bb 11 7c 55 bc a7 45 8b bb a4 60 cf ba
       -0.0026520619 -0.013030068 -0.0042502466 -0.0015821648
0001d0 28 6e af 3c 3a 15 09 bd be c7 cd 3c fd 2f ad 3c
       0.021414831 -0.03346751 0.025119659 0.021141047
0001e0 5f 27 99 bc 0a a7 0d 3b e6 d7 a9 3c 51 a8 c0 bb
       -0.018695531 0.0021614456 0.020732831 -0.00587944
0001f0 a5 d3 2e bc 7b 0d 82 3b 4c 4f fb bb 63 fb e1 bc
       -0.010670577 0.003968892 -0.007669365 -0.02758569
000200 44 fb bb bc ce 50 b8 3c 24 1b 13 bd b9 cb 21 3c
       -0.022946961 0.022499468 -0.035914555 0.009875231
000210 1e 45 30 bd 8b 57 a9 bc 26 9f 94 3b 8b 85 85 3c
       -0.043034665 -0.020671627 0.0045355735 0.01629903
000220 85 b7 09 bc a9 32 89 bc 28 b7 b0 3b 67 e3 95 3c
       -0.008405571 -0.01674779 0.0053929277 0.01829691
000230 dc 04 1a bc cb c7 07 bc df 68 f2 3b f6 75 f9 3a
       -0.009400573 -0.00828738 0.0073977555 0.0019032347
000240 00 b8 9c 3c 9a df 69 3c 0f 09 51 bc 17 a5 98 3c
       0.019130707 0.014274502 -0.012758507 0.018633408
000250 8c 97 3f bc f9 a3 81 3c 39 39 32 39 91 31 bc 3c
       -0.011693846 0.015825259 0.0001699672 0.022972854
000260 12 dc c0 bc 8a 3f 0c 3d 7b 20 ed bb ef 88 1d bc
       -0.023542438 0.034240283 -0.007236538 -0.009615167
000270 90 d1 3e 3c 9e 18 11 3d 32 72 93 bc 64 37 81 3b
       0.011646643 0.035423867 -0.017998789 0.0039433707
000280 45 61 07 bb 56 87 c6 bc bb 6a 36 3c f6 0e 04 bd
       -0.0020657342 -0.024234455 0.011133845 -0.03224083
000290 a9 82 94 3c e3 f5 4f 3c 6f 9c 2b 3c b8 85 6e bc
       0.01812871 0.012692901 0.010474308 -0.014558248
0002a0 be 81 35 bb a6 75 93 3b 89 02 f3 3a d3 49 09 bd
       -0.002769574 0.004500109 0.0018540184 -0.03351767
0002b0 3c d1 d3 bc 2e 8b f4 3c 07 d9 ac bc 13 81 d6 bc
       -0.025856607 0.029851522 -0.02109958 -0.026184594
0002c0 a3 59 2d bd 87 31 2b bc 9c ff 79 bc a3 e9 72 3c
       -0.042321812 -0.01044882 -0.015258696 0.014826211
0002d0 31 c3 a9 3c 1c f3 13 bc ab 8a b3 ba 47 81 49 3c
       0.020722957 -0.00903013 -0.0013697942 0.0122988885
0002e0 a4 75 bc 3c 53 67 8e 3b 56 0d 21 3c 91 5a 8f 3b
       0.023005314 0.0043458133 0.00982984 0.00437481
0002f0 55 6d 52 3c 68 7c eb 3c ea 26 d3 bb d9 06 42 bc
       0.01284345 0.028745845 -0.006443848 -0.011842453
000300 77 ae 18 3c 7e 24 79 39 40 9f 71 3d d5 57 2b bd
       0.009318939 0.00023760085 0.058989763 -0.04183181
000310 5d 5f 63 bc dc 12 82 3c 16 b3 cd bc 0e 79 7c 3b
       -0.013877717 0.015878133 -0.025109809 0.0038524303
000320 dd 0b ef 3c 0c 90 19 3d 3f b8 20 3c 36 d6 fd ba
       0.029180462 0.03749089 0.009809553 -0.0019366208
000330 7f e3 66 3b c6 50 61 bc b2 f9 cb 3c 6f bd bc 3c
       0.0035230813 -0.013752168 0.024899337 0.023039548
000340 d8 7d ae 3c 7d f0 02 3d 94 cd ea bc 61 4e 91 3c
       0.021300241 0.03196763 -0.02866248 0.01773757
000350 60 ef 8c bc 95 41 85 bc 1d a2 7d bc 8f 10 29 3c
       -0.017203987 -0.016266624 -0.015480545 0.010318889
000360 6c d9 d6 3b 0f 2c 39 bc 05 be 1e bd f9 11 50 3c
       0.0065566804 -0.011302008 -0.038755435 0.0126995975
000370 a1 37 33 3a 0c db 3a 3b ba 8d 86 3c 37 d2 f2 bc
       0.00068365975 0.002851191 0.016425002 -0.029641254
000380 ef 17 2b 3c 11 ed ba 3c 04 e9 86 3b b5 1a 1d 3d
       0.010442718 0.02281812 0.004117133 0.038355548
000390 8d 35 8b bc e3 98 80 3c 93 6b 8b bc ae 18 05 3d
       -0.016993308 0.015697902 -0.017019069 0.03249424
0003a0 9a 4c f4 3b ea 92 a2 3b c5 5c a0 3c 78 76 29 3c
       0.0074554207 0.004961361 0.019575486 0.010343187
0003b0 c6 00 ea 3c 5f 03 ea bc 2e f4 52 3c 70 67 a7 bb
       0.028564822 -0.02856606 0.0128756 -0.0051087663
0003c0 e8 d0 07 bd a7 48 bb bc 9a cb 18 bd 09 96 d8 3a
       -0.033158213 -0.022861792 -0.037303545 0.0016524206
0003d0 11 60 82 3c 97 21 08 3c 65 64 27 3b 52 b8 c0 bc
       0.015914949 0.00830879 0.0025542018 -0.02352539
0003e0 da e8 61 3b c6 f3 f8 ba d4 8e 7e 39 db e0 f4 3b
       0.0034471066 -0.0018993549 0.00024276535 0.007473094
0003f0 46 41 84 3a 6b 76 c5 ba 7b 8e 80 bb d0 47 9f 3b
       0.0010090254 -0.0015065199 -0.003923235 0.0048608556
